models/global_model.pth (torch, 30266 bytes, 5 tensors)

fc1.weight f4 [64, 41]
-0.25873038 0.20977436 -0.1477934 0.10055093 -0.0183405 -0.01597614 -0.011998002 -0.06774982
0.021269785 -0.38583437 0.01083308 -0.20927626 -0.39460894 -0.07730506 -0.024397882 0.15071894
0.02165134 0.12783702 0.007613465 -0.121269435 0.022935351 0.06969526 -0.06653311 -0.031924497
0.15916997 -0.17616756 -0.039161947 0.07793869 -0.20409715 0.012909666 0.021648219 -0.06318016
-0.07656292 0.15954836 0.020529022 0.068937905 -0.1369194 0.07004893 -0.10615849 0.017468916
-0.022714308 -0.002315391 0.013830647 0.12936608 0.031171978 0.00900909 -0.1055525 -0.050214488
-0.039386597 0.070117645 -0.20076792 -0.15049486 0.096084334 -0.06787542 0.14577995 0.018256867
0.1091898 -0.35254654 0.02480425 0.04712848 -0.05626978 -0.05784811 0.0076519847 -0.010012537
0.14563663 -0.028581023 -0.06963266 -0.0981384 -0.07681737 0.021509536 -0.08614751 -0.029504472
0.035555992 0.09426013 0.095317565 -0.07377485 -0.053529833 -0.12123699 0.028511157 -0.02862594
0.14288798 -0.15097505 0.09633285 0.15266901 -0.14219707 0.010316804 -0.13197242 -0.06234685
-0.04908665 -0.036848843 0.047634725 -0.21131437 -0.105243884 0.03435585 -0.16878992 -0.008298402
0.031850595 0.03049842 0.13186198 -0.034331903 0.09984649 -0.020479644 0.03627582 0.08613628
0.07533019 0.07812322 0.013905111 -0.095258415 0.17593084 -0.011377327 -0.11546805 -0.10631129
-0.08349656 0.18614103 -0.00012571116 0.041599303 -0.2692286 -0.021700183 -0.1175343 0.10445946
-0.12056006 0.24799003 -0.09884522 0.100566454 -0.14481063 -0.085556954 0.044473585 -0.093571536
0.0322933 -0.14130199 0.044221643 -0.033156008 -0.15821117 -0.1176208 0.30056036 -0.13966805
-0.13255604 0.0521848 -0.0333596 -0.096249335 0.078381754 -0.012814869 0.01120127 0.0758547
-0.1508167 0.030213231 0.17810784 0.012185405 -0.14881209 -0.06161825 -0.070074774 -0.033961214
-0.0018862089 -0.04740073 -0.10234872 0.13048258 0.0027822715 0.07708428 0.087845184 -0.08447284
-0.082800746 -0.07690322 -0.036626555 -0.23801737 -0.10058121 0.06639751 0.12559243 0.04337429
-0.005653061 -0.2633193 0.025761174 -0.107750244 -0.07208048 -0.55849385 0.06230322 0.0040260605
-0.5389195 -0.050536204 -0.038765416 0.23970516 0.02130046 -0.05416319 0.04296474 -0.0493271
0.0362495 -0.090871 0.0020053685 0.12647708 -0.01432051 -0.17740227 -0.027765756 -0.1320891
-0.1600233 0.0065469644 -0.07891559 -0.0884665 -0.061015535 0.059851903 -0.2414947 -0.08466539
0.026474496 0.05035266 0.1397948 -0.019309387 -0.09217647 0.039023895 0.18004937 0.15132634
-0.006096994 0.15807281 0.15352169 0.033207543 0.05330582 0.051165406 -0.044024047 -0.046266347
-0.008913763 0.019452274 0.0027783401 -0.017081039 0.1542492 -0.004861355 0.09810424 0.1485384
0.14101298 0.05575298 -0.018899696 -0.03953455 -0.14295073 -0.04056679 -0.026942754 -0.18375696
-0.12299099 0.06488546 0.02228053 -0.07320147 0.23818128 0.10245845 0.046435148 -0.09386926
0.21487252 -0.1393153 -0.04306534 0.06938022 -0.2701462 -0.04891077 0.13682382 -0.102506004
0.08212892 -0.0015424639 -0.202783 -0.08942432 0.047703624 -0.017893784 0.04803421 -0.20494832
00000000: 4f78 84be 17cf 563e 2757 17be a5ed cd3d
00000010: d13e 96bc 65e0 82bc 4593 44bc 6bc0 8abd
00000020: f93d ae3c 158c c5be 3b7d 313c 844c 56be
00000030: 2f0a cabe 1e52 9ebd 11de c7bc 1156 1a3e
00000040: 275e b13c b5e7 023e 607a f93b 1c5c f8bd
00000050: ebe2 bb3c 63bc 8e3d 8342 88bd 43c3 02bd
00000060: 74fd 223e 4565 34be 4768 20bd 529e 9f3d
00000070: d8fe 50be 1083 533c 9b57 b13c 9a64 81bd
00000080: 05cd 9cbd a560 233e 7b2c a83c 512f 8d3d
00000090: 9934 0cbe d075 8f3d 9f69 d9bd f91a 8f3c
000000a0: 5b13 babc d1bd 17bb f099 623c 8b78 043e
000000b0: 605c ff3c dd9a 133c e92b d8bd b5ad 4dbd
000000c0: d753 21bd d799 8f3d 1b96 4dbe 531b 1abe
000000d0: ddc7 c43d 4502 8bbd 5747 153e 6d8f 953c
000000e0: e79e df3d fb80 b4be 4832 cb3c cb09 413d
000000f0: 247b 66bd 24f2 6cbd 80bd fa3b a00b 24bc
00000100: c521 153e c022 eabc 919b 8ebd c9fc c8bd
00000110: 6d52 9dbd c434 b03c 1b6e b0bd 5db3 f1bc
00000120: 29a3 113d 740b c13d db35 c33d 4517 97bd
00000130: 1942 5bbd 194b f8bd 3b90 e93c f380 eabc
00000140: 3a51 123e 3499 1abe 284a c53d 4455 1c3e
00000150: 1c9c 11be d007 293c c723 07be 695f 7fbd
00000160: 150f 49bd d0ee 16bd a11c 433d cb62 58be
00000170: 1b8a d7bd b8b8 0c3d 44d7 2cbe 05f6 07bc
00000180: c575 023d d3d7 f93c d406 073e 9c9f 0cbd
00000190: 517c cc3d edc4 a7bc f495 143d 3868 b03d
000001a0: b746 9a3d 11ff 9f3d 43d2 633c d816 c3bd
000001b0: 3727 343e f867 3abc 837a ecbd bcb9 d9bd
000001c0: 3f00 abbd c19b 3e3e 55d1 03b9 0864 2a3d
000001d0: 55d8 89be 95c4 b1bc d3b5 f0bd d7ee d53d
000001e0: 31e8 f6bd 19f1 7d3e 5d6f cabd c9f5 cd3d
000001f0: 3d49 14be 7c38 afbd ef29 363d 6fa2 bfbd
00000200: fb45 043d 78b1 10be c121 353d 98ce 07bd
00000210: 1c02 22be 2de3 f0bd 0ce3 993e 2405 0fbe
00000220: c5bc 07be bbbf 553d 13a4 08bd 5f1e c5bd
00000230: 9d86 a03d 75f5 51bc 8885 373c b559 9b3d
00000240: b16f 1abe bd81 f73c e761 363e 4ba5 473c
00000250: 3262 18be 6b63 7cbd 5d83 8fbd ea1a 0bbd
00000260: ab3a f7ba 4527 42bd 359c d1bd 3a9d 053e
00000270: c556 363b 5dde 9d3d 2de8 b33d 1900 adbd
00000280: 7093 a9bd 6f7f 9dbd ba05 16bd d3ba 73be
00000290: 85fd cdbd 6bfb 873d 4d9b 003e 3da9 313d
000002a0: 503d b9bb cad1 86be 1909 d33c 29ac dcbd
000002b0: ee9e 93bd 74f9 0ebf a931 7f3d 0bed 833b
000002c0: a1f6 09bf 0dff 4ebd 7cc8 1ebd 4575 753e
000002d0: 4d7e ae3c 39da 5dbd ccfb 2f3d 370b 4abd
000002e0: 5b7a 143d 931a babd 806c 033b 3583 013e
000002f0: 93a0 6abc f1a8 35be 0375 e3bc 5d42 07be
00000300: 26dd 23be eb87 d63b 7f9e a1bd ed2d b5bd
00000310: 6deb 79bd 4527 753d 634a 77be 0c65 adbd
00000320: 0be1 d83c 973e 4e3d 5e26 0f3e b82e 9ebc
00000330: 04c7 bcbd 85d7 1f3d dd5e 383e 4bf5 1a3e
00000340: 4bc9 c7bb d7dd 213e ca34 1d3e a204 083d
00000350: 3457 5a3d d192 513d 8f52 34bd c881 3dbd
00000360: 080b 12bc 605a 9f3c d014 363b 89ed 8bbc
00000370: 81f3 1d3e 004c 9fbb e0ea c83d 731a 183e
00000380: b565 103e 3d5d 643d 89d3 9abc fbee 21bd
00000390: ad61 12be 5d29 26bd 0db7 dcbc c92a 3cbe
000003a0: b3e2 fbbd abe2 843d a885 b63c a7ea 95bd
000003b0: cbe5 733e bcd5 d13d c832 3e3d 873e c0bd
000003c0: 8b07 5c3e aca8 0ebe 4865 30bd 3717 8e3d
000003d0: 9a50 8abe a956 48bd 8b1b 0c3e abee d1bd
000003e0: 3533 a83d 802c caba 59a6 4fbe 1924 b7bd
000003f0: e064 433d fc95 92bc 85bf 443d f9dd 51be

fc1.bias f4 [64]
0.0068375506 -0.020653453 0.05646594 -0.03599109 0.050162792 -0.11678144 -0.064879514 -0.10310355
-0.12816946 0.015049249 -0.052123945 -0.03314761 -0.012112543 0.055586737 0.048089415 0.021502098
0.09810552 0.060213756 0.11187267 -0.027415404 -0.049723987 0.103146076 0.03748056 0.056673687
0.033671774 -0.0721389 -0.024052026 -0.0060774884 0.0217679 0.013926151 0.03523646 -0.062444378
-0.021912886 -0.06682995 0.0036314726 -0.13729246 -0.102021575 0.12671812 0.016452914 -0.034881826
0.026430622 -0.042373333 0.0482638 -0.004912849 -0.0015310472 -0.078683846 -0.026548436 0.09416609
0.0005778198 0.008697972 0.04792395 -0.07712388 -0.020272436 -0.016600328 0.016315557 -0.016520252
-0.016540958 0.08080062 -0.11341963 0.12702666 0.018903272 0.018667825 -0.03136583 0.029230772
00000000: 880d e03b 6e31 a9bc d448 673d 656b 13bd
00000010: 8077 4d3d 1c2b efbd 8ddf 84bd f427 d3bd
00000020: db3e 03be 2091 763c eb7f 55bd cac5 07bd
00000030: b073 46bc ebae 633d 68f9 443d 2b25 b03c
00000040: 8ceb c83d b3a2 763d 801d e53d 4596 e0bc
00000050: 61ab 4bbd 403e d33d 3785 193d ab22 683d
00000060: 6aeb 093d 8fbd 93bd c108 c5bc ab25 c7bb
00000070: 9852 b23c 832a 643c 1b54 103d adc5 7fbd
00000080: a782 b3bc 24de 88bd 00fe 6d3b 6596 0cbe
00000090: b0f0 d0bd 65c2 013e 43c8 863c 3fe0 0ebd
000000a0: 0885 d83c a98f 2dbd 43b0 453d f7fb a0bb
000000b0: 6bad c8ba ff24 a1bd 1b7c d9bc 27da c03d
000000c0: d578 173a f081 0e3c e74b 443d 20f3 9dbd
000000d0: 6112 a6bc 69fd 87bc 34a8 853c 7b55 87bc
000000e0: e780 87bc cc7a a53d 8d48 e8bd 4713 023e
000000f0: 09db 9a3c 44ed 983c 7579 00bd 5f75 ef3c

fc2.weight f4 [64, 64]
0.05201301 0.084192775 0.10896629 0.0561984 -0.049103383 -0.12971772 0.13385268 -0.03838623
-0.092208184 0.10391957 -0.10682595 -0.05574866 0.106336355 -0.030419866 0.011589345 -0.045924857
0.012574524 0.01703196 0.024281112 -0.04496786 0.07033298 -0.027187178 0.02876077 0.031063268
-0.1838603 0.015903978 0.020353675 0.0077226707 0.0074371225 -0.036677666 0.02568604 0.1436052
0.15199281 -0.0025536865 0.092190236 0.023750992 -0.0740614 -0.04467162 0.013681208 0.036315728
-0.079074346 0.066826515 0.1520196 0.04268111 -0.076643705 -0.032941323 -0.118383996 0.036442526
-0.12825905 0.10155121 0.11200366 -0.19245064 0.06613239 0.0073829195 0.087647684 0.12946595
-0.001001743 0.01928283 -0.0861837 -0.0026503552 -0.13392378 0.052716076 0.1569074 0.11954949
0.03308667 -0.005936235 0.17674564 0.088737905 -0.094256826 -0.20022486 -0.040809583 -0.05147353
-0.094525866 -0.05072267 0.07442184 0.10952666 0.032831077 -0.046691313 -0.040466715 0.0016492307
-0.089920335 0.13021515 0.07319945 -0.0065954872 -0.034182027 -0.0828943 -0.013671164 0.011373006
-0.06317847 -0.033813894 -0.05117962 -0.055285584 -0.04839583 0.010614459 0.22888136 0.061577942
0.0014026811 0.04477942 0.050592292 0.028322278 -0.06352888 0.17054106 -0.0045895227 -0.081558876
-0.052340668 0.07563258 -0.08305357 -0.016923064 -0.04065809 -0.0046854764 -0.015085752 0.030056387
-0.02713337 -0.022699535 0.14665695 0.15859312 -0.19407906 -0.039418083 0.05673307 -0.039842676
-0.1715676 0.05331664 -0.21517867 0.041593224 -0.024996543 -0.060428947 -0.25885937 -0.03829938
0.14186186 -0.074446805 0.10466955 -0.120730825 -0.10040271 0.0077426434 0.038059965 0.059464473
-0.051245984 -0.16553424 0.15892135 0.03218591 0.0857746 0.20259523 -0.12350637 0.014687558
0.008025055 -0.058759514 0.11121995 0.085933775 -0.15268 0.07131731 -0.07738199 -0.0046785963
0.13832451 -0.014235402 0.06310008 0.08873772 0.06861324 -0.049246877 -0.021981532 -0.24087404
4.2125583e-05 -0.18171851 0.018279642 -0.021363964 0.0034779906 0.10455358 0.0863566 -0.13214375
0.18211664 0.08043114 -0.06877926 -0.20030117 -0.03630221 0.010634772 0.0136906365 0.110024095
-0.04990684 0.035556406 0.1785683 0.0152104525 0.10133093 -0.11061216 -0.09321892 0.17608397
0.05096297 -0.019952266 0.08480567 -0.034003913 0.08396787 -0.051548287 0.012882949 0.025394475
0.052244008 0.017444974 0.046660274 -0.11983338 0.08382514 0.11105261 0.1294657 -0.045770478
0.014055259 0.097532354 0.027527293 0.022913396 0.054803025 -0.019903809 0.0046040514 -0.20936644
-0.10036854 0.16926752 0.084331065 0.09297272 -0.068205915 -0.088619374 -0.048735958 0.11136601
-0.108405195 0.14777485 -0.05143256 -0.15506071 0.01021359 0.026562287 0.049533665 -0.079305
0.048285127 -0.03027868 0.04922254 -0.006026447 0.0106711285 0.08528128 -0.007353013 0.16575904
0.019898793 -0.0038381417 0.012437026 -0.065146215 -0.049904753 -0.0016306216 -0.2246715 0.16328102
-0.024626745 -0.075328685 0.070121765 -0.025205612 0.12874101 0.08872989 0.07689812 0.07343882
-0.09410766 -0.028759954 -0.19813238 -0.11759677 -0.059459552 0.037205715 -0.17441106 -0.07286547
00000000: 980b 553d 436d ac3d b829 df3d 4b30 663d
00000010: a120 49bd b9d4 04be ad10 093e e13a 1dbd
00000020: a5d7 bcbd c9d3 d43d 90c7 dabd b558 64bd
00000030: e0c6 d93d 1533 f9bc 3ce1 3d3c b41b 3cbd
00000040: 6005 4e3c 9c86 8b3c 2fe9 c63c 3830 38bd
00000050: bd0a 903d a5b7 debc b59b eb3c 6578 fe3c
00000060: e045 3cbe 0f49 823c c0bc a63c 750e fd3b
00000070: 1bb3 f33b 523b 16bd 886b d23c 3e0d 133e
00000080: 01a4 1b3e c05b 27bb 3cce bc3d 7191 c23c
00000090: 81ad 97bd 97f9 36bd 2527 603c cdbf 143d
000000a0: bbf1 a1bd 57dc 883d 07ab 1b3e 63d2 2e3d
000000b0: 60f7 9cbd 7bed 06bd 4f73 f2bd c244 153d
000000c0: 5756 03be 15fa cf3d 2d62 e53d c811 45be
000000d0: 6b70 873d 6bec f13b a180 b33d b992 043e
000000e0: eb4c 83ba 07f7 9d3c 1481 b0bd 95b1 2dbb
000000f0: 5123 09be d0ec 573d 55ac 203e 5dd6 f43d
00000100: e385 073d c084 c2bb cffc 343e 38bc b53d
00000110: b909 c1bd bf07 4dbe f327 27bd e8d5 52bd
00000120: c796 c1bd 93c2 4fbd 7a6a 983d 834f e03d
00000130: e179 063d 643f 3fbd 6dc0 25bd 002b d83a
00000140: 2728 b8bd 1f57 053e 98e9 953d f51e d8bb
00000150: 7402 0cbd 7dc4 a9bd 05fd 5fbc d855 3a3c
00000160: b763 81bd 7080 0abd b9a1 51bd 2373 62bd
00000170: b53a 46bd 45e8 2d3c e05f 6a3e 2739 7c3d
00000180: 2bda b73a a06a 373d dd39 4f3d 1f04 e83c
00000190: 6e1b 82bd 51a2 2e3e b563 96bb 5708 a7bd
000001a0: 2b63 56bd 41e5 9a3d fd17 aabd 3da2 8abc
000001b0: 1989 26bd a088 99bb 3b2a 77bc d038 f63c
000001c0: cd46 debc 60f4 b9bc 3d2d 163e 3c66 223e
000001d0: a9bc 46be db74 21bd f060 683d 1332 23bd
000001e0: 6baf 2fbe 8d62 5a3d cc57 5cbe a85d 2a3d
000001f0: 8dc5 ccbc 5884 77bd 3789 84be d0df 1cbd
00000200: 3c44 113e 9177 98bd fd5c d63d b941 f7bd
00000210: f09f cdbd 00b6 fd3b c4e4 1b3d 0591 733d
00000220: 4fe7 51bd cf81 29be 47bc 223e 5fd5 033d
00000230: 98aa af3d 2075 4f3e e8f0 fcbd 15a4 703c
00000240: 857b 033c d1ad 70bd 49c7 e33d 0cfe af3d
00000250: 2558 1cbe cf0e 923d 737a 9ebd e94e 99bb
00000260: f1a4 0d3e 9b3b 69bc 9d3a 813d 1fbc b53d
00000270: 1985 8c3d 18b7 49bd 9d12 b4bc afa7 76be
00000280: 00b0 3038 6b14 3abe 30bf 953c 7b03 afbc
00000290: 00ef 633b 3020 d63d bbdb b03d b150 07be
000002a0: c97c 3a3e 15b9 a43d 24dc 8cbd c01b 4dbe
000002b0: a0b1 14bd 773d 2e3c b14e 603c 5054 e13d
000002c0: 1d6b 4cbd 98a3 113d 9cda 363e 4335 793c
000002d0: 9786 cf3d a188 e2bd 90e9 bebd 5b4f 343e
000002e0: 8cbe 503d ef72 a3bc 98ae ad3d b047 0bbd
000002f0: 59f7 ab3d 4c24 53bd 0113 533c 1308 d03c
00000300: d0fd 553d c3e8 8e3c d81e 3f3d 346b f5bd
00000310: 84ac ab3d 8d6f e33d a892 043e d379 3bbd
00000320: 0748 663c 0bbf c73d eb80 e13c e0b4 bb3c
00000330: 2379 603d 500d a3bc 95dd 963b 2864 56be
00000340: 058e cdbd 7754 2d3e c4b5 ac3d 7b68 be3d
00000350: 8baf 8bbd 137e b5bd 5b9f 47bd dd13 e43d
00000360: 8b03 debd 4a52 173e f3aa 52bd 3cc8 1ebe
00000370: e756 273c 2799 d93c d0e3 4a3d a96a a2bd
00000380: a0c6 453d ff0a f8bc 939d 493d 8079 c5bb
00000390: f5d5 2e3c f4a7 ae3d 8bf1 f0bb bdbc 293e
000003a0: cb02 a33c 5589 7bbb abc4 4b3c 616b 85bd
000003b0: ed68 4cbd 95ba d5ba 4910 66be 2433 273e
000003c0: 07be c9bc ed45 9abd 009c 8f3d 007c cebc
000003d0: afd4 033e 04b8 b53d c37c 9d3d 1867 963d
000003e0: 84bb c0bd ff99 ebbc 37e3 4abe 93d6 f0bd
000003f0: dc8b 73bd 0565 183d d098 32be 7e3a 95bd

fc2.bias f4 [64]
0.047852885 -0.01720724 0.029819256 0.0077263615 -0.0010447428 0.008400854 0.008702456 -0.038041063
-0.0037629895 0.03254564 -0.08484676 0.003870088 -0.03005506 0.10411409 -0.07389445 0.029278733
-0.0020231635 -0.021258185 0.018830275 0.020466741 0.004194437 0.030340284 0.03668543 -0.01414562
0.06275932 -0.020347528 -0.011574681 0.04552935 -0.0085102515 0.06543117 0.016807696 -0.040298242
-0.035183724 0.09471125 0.059003923 0.05868573 0.06842512 0.031930912 0.021454787 -0.019630587
-0.010632381 -0.03461719 0.04740539 -0.050710797 -0.022352116 -0.042964846 -0.009432937 -0.036096364
-0.03620427 0.044758428 0.08720049 0.012433034 0.060994714 -0.00028095892 0.04977258 0.024857813
-0.020283455 -0.0075550326 -0.028735055 0.042021107 0.07030782 0.024795184 0.019242352 0.012962743
00000000: 6301 443d 33f6 8cbc 8347 f43c 6b2d fd3b
00000010: c0ef 88ba bca3 093c bf94 0e3c f2d0 1bbd
00000020: 7d9c 76bb 944e 053d 23c4 adbd 4da1 7d3b
00000030: 0736 f6bc c539 d53d f955 97bd f4d9 ef3c
00000040: 0d97 04bb a525 aebc f341 9a3c dea9 a73c
00000050: 7d71 893b 308c f83c 7643 163d 08c3 67bc
00000060: f587 803d dcaf a6bc bba3 3dbc fc7c 3a3d
00000070: 956e 0bbc c700 863d 4bb0 893c c50f 25bd
00000080: cf1c 10bd f9f7 c13d 19ae 713d 7360 703d
00000090: 7822 8c3d fdc9 023d f3c1 af3c 53d0 a0bc
000000a0: 7033 2ebc c1ca 0dbd 272c 423d 20b6 4fbd
000000b0: c91b b7bc e8fb 2fbd 9b8c 1abc c8d9 13bd
000000c0: ee4a 14bd 9d54 373d 2c96 b23d edb3 4b3c
000000d0: 98d5 793d ab4d 93b9 55de 4b3d 9da2 cb3c
000000e0: 7d29 a6bc 3590 f7bb c765 ebbc 531e 2c3d
000000f0: 8cfd 8f3d 451f cb3c 23a2 9d3c af61 543c

fc3.weight f4 [1, 64]
0.07222247 0.28534684 -0.37172928 -0.097700335 -0.38836882 0.17693217 0.14122255 -0.06768065
0.120360665 0.038576078 0.29185915 0.115172625 -0.030997714 -0.1888508 -0.16985293 0.18159898
0.13286845 -0.06450203 -0.07867747 0.43221822 0.011296074 -0.31853518 -0.015086184 0.117812894
0.14458613 0.09281554 0.07836517 -0.011423816 0.023146331 -0.47676185 0.08990141 -0.46020398
-0.072147466 -0.09330281 0.13426943 0.14442575 0.04916705 0.39227045 -0.11717706 0.002187309
-0.36766434 0.10115705 0.3955133 -0.054766696 0.30134442 0.30047986 0.20636427 -0.081193924
0.35806608 0.11859089 -0.09974856 -0.024043852 0.15074582 0.10200735 -0.069860384 0.02217877
-0.07518336 -0.40297934 0.1834957 0.1468802 -0.406829 -0.025756925 0.12401948 -0.04076399
00000000: 60e9 933d fb18 923e 4d53 bebe 1d17 c8bd
00000010: 47d8 c6be b52d 353e a59c 103e 279c 8abd
00000020: a77f f63d f301 1e3d 906e 953e a0df eb3d
00000030: ebee fdbc 1b62 41be eded 2dbe 15f5 393e
00000040: ab0e 083e a419 84bd a721 a1bd b54b dd3e
00000050: 2b13 393c 0b17 a3be 0b2c 77bc e347 f13d
00000060: 630e 143e 1316 be3d eb7d a03d f52a 3bbc
00000070: 609d bd3c 211a f4be 3b1e b83d db9f ebbe
00000080: 0dc2 93bd 8b15 bfbd ed7d 093e 58e4 133e
00000090: 6363 493d acd7 c83e 87fa efbd f558 0f3b
000000a0: 803e bcbe 6d2b cf3d b880 ca3e 0b53 60bd
000000b0: d149 9a3e 7fd8 993e 2851 533e 0049 a6bd
000000c0: 7054 b73e c8df f23d f948 ccbd 9df7 c4bc
000000d0: 1d5d 1a3e 3be9 d03d f612 8fbd 40b0 b53c
000000e0: bcf9 99bd 4f53 cebe 4ce6 3b3e c367 163e
000000f0: e44b d0be 3000 d3bc edfd fd3d 24f8 26bd
